checkpoints/sac_reach-v3_best_actor.pt (torch, 316269 bytes, 8 tensors)

act_low f4 [4]
000000 00 00 80 bf 00 00 80 bf 00 00 80 bf 00 00 80 bf
       -1.0 -1.0 -1.0 -1.0

act_high f4 [4]
000000 00 00 80 3f 00 00 80 3f 00 00 80 3f 00 00 80 3f
       1.0 1.0 1.0 1.0

net.net.0.weight f4 [256, 39]
000000 c1 22 9d ba 31 ec af 3d aa f4 06 be 7c 58 f1 bd
       -0.0011988507 0.08589972 -0.1317927 -0.11784455
000010 ef 9d 7c bd 5f e1 2f 3d 32 ec 4f bb d5 02 02 3e
       -0.061674055 0.04293954 -0.0031726477 0.12696393
000020 d2 d2 68 bc 2d 8e 2d 3d 8c 37 46 bd 9d ec 00 bd
       -0.01421042 0.042371918 -0.048392817 -0.031475652
000030 50 a6 1c be bf 30 d9 bd 7a 2f 87 bd dc 5e c2 3b
       -0.15297818 -0.10605001 -0.06600852 0.0059317183
000040 ae a5 81 3d df c5 c4 3d 5e 53 de bd 87 ce 8e bd
       0.06330429 0.096080534 -0.10855745 -0.06972986
000050 87 3a 6e 3d e4 28 08 3e 32 fb 06 bd 37 67 f5 3d
       0.058161285 0.13296849 -0.032954402 0.11982577
000060 7a 6f d3 bc c2 cd 8a 3c d8 78 14 3e 7a 1c 18 be
       -0.025809992 0.016943816 0.14499223 -0.14854613
000070 c4 73 ce bd 19 0c 26 bd f5 a9 7f bd d8 ab 0d 3e
       -0.10080674 -0.04053888 -0.062417943 0.13835084
000080 cc 90 d4 bd 73 f6 96 bd 26 1d e5 bd ad 91 19 be
       -0.1037918 -0.07371225 -0.111872 -0.14996977
000090 eb 6e bf bd 08 f3 0c 3e 7d 55 92 3d d8 f1 9e 3d
       -0.09347328 0.13764584 0.07145212 0.07760972
0000a0 de f9 09 3c 74 21 a8 bd 6d ee dd 3c 5c 19 19 be
       0.008421389 -0.08209506 0.02709123 -0.1495108
0000b0 cc f5 ec bd 6d 10 a9 bd 4d e9 ce 3d 95 47 c0 3d
       -0.115703195 -0.08255086 0.10103092 0.09388653
0000c0 db 70 91 bd bf 53 bd bb 36 bd d1 3d 5c 02 23 3e
       -0.071016036 -0.0057778056 0.10241167 0.15918869
0000d0 8e 27 82 3d f2 35 b1 3c 84 e1 db 3d e1 17 c1 bd
       0.06355201 0.021632168 0.10736373 -0.09428383
0000e0 c2 70 f4 3c 6e 41 fe bd d8 4a e3 bd e1 68 a9 bd
       0.029838923 -0.124148235 -0.1109826 -0.08271957
0000f0 97 62 94 3d ae e2 83 3d ed 41 c2 bd c1 25 46 3d
       0.07245367 0.0643972 -0.094852306 0.04837585
000100 fe 07 b4 3d 71 91 a5 bc 72 57 c8 3b bc f8 17 3d
       0.08790587 -0.020210953 0.00611394 0.037102446
000110 a4 72 cb 3d b7 71 1d 3e 5d b8 fc bd aa 5c 70 bd
       0.09933975 0.1537541 -0.12339852 -0.05868212
000120 77 e2 80 3d b7 db 07 3e 5f b0 0e 3e 5e ae 10 3e
       0.06293195 0.13267408 0.13934468 0.14129016
000130 d8 87 02 3d 27 96 0e be 91 58 71 3c 9d 29 cd bd
       0.031867832 -0.13924466 0.0147305885 -0.10017703
000140 4c d0 18 be ec af 11 3e af 5a f9 3d dd 90 23 be
       -0.14923209 0.14227265 0.121755 -0.1597323
000150 d2 86 f5 3c 13 fb dc bc c9 dd d7 bc 2f 1e 96 bd
       0.029971514 -0.02697519 -0.026350873 -0.07329976
000160 7e 39 7c 3d d0 3d c2 bd 14 71 70 3d d9 d7 a5 3d
       0.061578266 -0.09484446 0.05870159 0.0809781
000170 c2 c3 ea 3d 1f 3e 75 3d c1 49 22 be 39 bc d4 bd
       0.11463119 0.059873696 -0.15848447 -0.10387463
000180 20 bf a3 3d 10 47 09 3d 9a d2 ff bd ed d5 bc bd
       0.079954386 0.033515036 -0.12491341 -0.092204906
000190 7d 41 1a 3e 36 f9 dc 3d bc fd 8e bd 85 13 25 bd
       0.15064044 0.10789721 -0.0698199 -0.04030182
0001a0 dc 32 1c be 9a 9f 3c bb c1 f5 f6 bd ea f5 fc bd
       -0.15253776 -0.0028781653 -0.120585926 -0.12351592
0001b0 56 8e 10 bc ac f4 c4 3c 68 4d 86 bd fd 97 c2 3d
       -0.008822998 0.02404245 -0.06557733 0.09501646
0001c0 d8 90 c7 bd 57 c8 14 3e 2a bd e0 3d 2e 46 0a be
       -0.09744424 0.14529549 0.1097358 -0.13503334
0001d0 4e 3d 23 bd 11 c3 ec 3b 7d 63 bf 3c 1c 8f 1b 3d
       -0.039853387 0.007225402 0.02336287 0.037978277
0001e0 a3 b1 80 3d 84 26 1d 3c 36 03 a0 bd c3 2d 9b 3d
       0.062838815 0.009591702 -0.078131124 0.07577088
0001f0 0a 4a 1d be a9 5f c2 bd 04 30 24 bd c2 be 9f bd
       -0.15360275 -0.09490902 -0.040084854 -0.07800056
000200 4f 73 65 bd f5 64 06 be 43 84 0b bd 1a 33 0c 3d
       -0.05601817 -0.1312445 -0.03406168 0.03422842
000210 ae a4 d5 bd 6c a3 06 bc 04 c2 ea 3d ab d9 86 bc
       -0.10431801 -0.008217674 0.11462787 -0.016461214
000220 f5 d3 91 3b 73 54 62 bc 27 bd 04 3d cd 84 d0 3d
       0.004450316 -0.01381408 0.032406952 0.1018158
000230 35 52 1b 3e 04 43 d0 3d 2f ad 1b 3e 1d bd 3d bc
       0.15168078 0.10169032 0.15202783 -0.011580733
000240 83 4c 13 be 55 78 9b bd 38 4c df 3d 6f 0e 88 ba
       -0.14384656 -0.07591311 0.109032094 -0.0010380278
000250 aa 00 a3 bd 60 4e fb bd eb 73 19 be 9f 64 0a be
       -0.07959111 -0.12270808 -0.14985625 -0.13514946
000260 9e 09 05 bd 7a d8 b3 3d 95 4c b1 3d 9a 23 1e be
       -0.032479875 0.08781524 0.08657185 -0.15443268
000270 8a 90 cc 3d 1d 4f 00 be 2b a9 0a bd c0 f8 84 bd
       0.09988506 -0.1253018 -0.033852737 -0.06492758
000280 b9 aa fc bc 39 c7 00 bd bb 23 13 be 37 94 0d be
       -0.030843126 -0.031439994 -0.14369099 -0.1382607
000290 da 43 cd bc 5d b6 07 3b dc f9 94 bd 42 12 77 3d
       -0.025056768 0.0020708062 -0.072742194 0.060320146
0002a0 6c 95 13 be 32 0e 31 bc 11 33 10 3e dd c3 85 bd
       -0.14412469 -0.010806607 0.1408198 -0.065314986
0002b0 08 11 14 3e fc 87 6d 3d 45 fa 13 be 02 7d cf 3d
       0.14459622 0.057991013 -0.14450939 0.10131265
0002c0 f9 5e 97 bc 50 65 92 bd c1 1e 03 3e 1e 81 04 be
       -0.018477904 -0.0714823 0.128047 -0.1293988
0002d0 66 c2 8c 3c 60 52 09 bd 17 30 ea 3d 30 16 37 3d
       0.01718254 -0.033525825 0.11434954 0.044698894
0002e0 fe 93 9d 3d b2 a1 67 3d 46 b9 1d bd a9 ef 09 bd
       0.07694243 0.05655069 -0.03850677 -0.033675823
0002f0 2a 20 07 be 96 b1 b1 3d 87 30 02 3e e9 62 e0 3d
       -0.13195863 0.0867645 0.12713824 0.109563656
000300 d0 52 e7 bd e7 04 ea 3b 85 2d e7 bd aa e9 b3 bd
       -0.11295092 0.0071416977 -0.11287979 -0.08784802
000310 51 b5 bf bd a7 ea 5e 3d 24 0a c4 bd f0 4a 51 bb
       -0.09360755 0.054423 -0.09572247 -0.0031935535
000320 86 e7 d2 3b ee c8 d2 3d 37 4c f7 bd 99 9b e0 bd
       0.006436291 0.102922305 -0.12075084 -0.10967178
000330 a2 be be bd 69 ec e4 3d 86 c4 6b bd d1 4e 0a 3e
       -0.09313704 0.11177904 -0.057560466 0.13506629
000340 45 2c 6d 3d ab 1a a6 3c cf 3c 9c ba 06 a8 01 bd
       0.057903547 0.020276388 -0.0011919978 -0.03165438
000350 3d 95 a4 3c 01 8a 14 bd 6a cb ba ba 44 ea a4 3c
       0.020090694 -0.036264423 -0.0014251296 0.020131238
000360 fb 90 00 be 42 45 ab bd 2e 19 04 3e a3 60 05 be
       -0.12555306 -0.08362819 0.1290023 -0.13025145
000370 51 2c 41 bc 73 fb 21 3e 02 4a 6c 3d f9 ba 8a 3b
       -0.011790351 0.15818577 0.057687767 0.0042337147
000380 5e 19 0e be 98 74 a2 3d 4c 96 e9 bd aa 2e 3a bd
       -0.13876864 0.07932395 -0.1140562 -0.04545466
000390 62 0f 5c bd ad 41 c2 bc 83 93 e5 3a a5 3e 07 3e
       -0.053725608 -0.023712957 0.0017515275 0.1320749
0003a0 82 c2 a3 3c 2b de 12 3e fa fd c7 3d b6 f1 cf bd
       0.01999021 0.14342563 0.09765239 -0.101535246
0003b0 19 78 92 3d 85 6f e8 bd 38 60 8a bd 8c ae 3f 3d
       0.07151813 -0.11349396 -0.067566335 0.04679732
0003c0 d7 56 57 3d 1b a5 f6 3d e3 5d 54 bd 90 e8 32 b8
       0.05257305 0.1204321 -0.05184735 -4.2655098e-05
0003d0 d5 37 a8 3d 46 93 1e be 95 18 ed 3d 6b 97 07 be
       0.08213774 -0.15485868 0.11576954 -0.13241355
0003e0 c0 a2 10 3b da 05 df bc ea b7 ac bd c3 60 ad 3c
       0.0022069663 -0.02722447 -0.08433516 0.021164304
0003f0 9f 48 07 3e ef f4 40 bd d8 4f c3 bd ee cc 73 bd
       0.13211296 -0.047108587 -0.09536713 -0.059521608

net.net.0.bias f4 [256]
000000 3a 33 97 bd 18 09 2e bc b4 e7 f2 bd 5d 3e 54 bd
       -0.073828176 -0.010622285 -0.118606 -0.051817287
000010 04 5f 14 bd d5 09 4e bd a4 8c e3 3d 9d 3a 16 3e
       -0.036223426 -0.050302345 0.111108094 0.14670797
000020 9b db 92 bd 32 58 a9 3d e1 a5 29 3c 7a 73 ef 3d
       -0.07170793 0.08268775 0.01035449 0.11691947
000030 c6 01 0f be e6 da a1 bd 31 9f 04 bd dc 2b 1d 3e
       -0.1396552 -0.0790308 -0.03237838 0.15348762
000040 a3 78 01 3e 58 80 31 bd 81 26 ca bd f6 4f a4 bd
       0.12643676 -0.04333529 -0.09870625 -0.08023064
000050 88 55 a1 3c 60 a4 15 3d 6a 85 a6 bd a2 09 3a 3d
       0.019694105 0.036533713 -0.081309155 0.045419343
000060 5a ac 97 bc 93 12 f4 3d ce 06 7a bd cb c4 b8 bd
       -0.0185148 0.11917605 -0.061041646 -0.0902191
000070 b4 9a c9 3c 14 6c 02 3c 56 cd b9 3d a9 c4 1f 3e
       0.024609901 0.007960338 0.09072368 0.15602364
000080 6f af 84 bd 2b c9 18 3e 7f 6e 99 3d 08 4a 0b 3e
       -0.06478774 0.1492049 0.074917786 0.1360246
000090 b8 52 4b 3d fb 1f c4 bc a0 79 b6 3c 1c 11 80 3b
       0.049639434 -0.02394103 0.022274792 0.0039082896
0000a0 2e 34 f2 bd 8d 54 5a bd 77 62 f8 3d 7d 85 00 3d
       -0.11826359 -0.05330329 0.12128156 0.031377304
0000b0 40 0d 2d 3d 19 ea 7d 3c ce bd 0e 3d 65 aa e3 bd
       0.042248964 0.015497708 0.03484898 -0.111164846
0000c0 cb 94 f4 bc 49 de 0d bd d9 2d 60 bd 63 47 cf bd
       -0.029856106 -0.034635816 -0.054731224 -0.10121038
0000d0 4f 48 86 bc 14 b2 7a bb 2a 7f 56 bd 9a 4f 20 bd
       -0.016391901 -0.0038253115 -0.052367367 -0.039138414
0000e0 bd a3 4a bd ce a9 d3 bc 51 e7 02 be ae 57 05 3e
       -0.04947256 -0.025837805 -0.12783553 0.13021728
0000f0 e4 c4 af bd 94 32 aa 3d 54 54 10 be 7e c7 f9 bb
       -0.08582476 0.08310428 -0.14094669 -0.0076226583
000100 c4 42 6d bc 33 74 0b be 51 27 0d 3c e1 c7 f4 bd
       -0.01448125 -0.13618545 0.008615331 -0.119521864
000110 48 c6 66 3d 10 38 cd 3d 32 d5 ca bc e6 64 d9 3c
       0.05634144 0.10020459 -0.024759863 0.02653737
000120 c2 23 a4 bd d7 6b 6d 3d 3d ce 1a be 76 05 23 3e
       -0.08014633 0.057964172 -0.15117736 0.15920052
000130 32 c8 13 bc 9a 41 09 3d cc 9c 0a 3e 55 82 07 be
       -0.009019898 0.03350983 0.13536376 -0.13233311
000140 84 d2 aa bd 10 da e8 3c ab 9b 23 be 55 f6 13 3d
       -0.08340934 0.028424293 -0.15977351 0.036123592
000150 ae 18 5a bc b8 ce 19 be 41 74 24 bd 94 ff ef bd
       -0.013311548 -0.15020263 -0.04014993 -0.117186695
000160 9a 71 7d 3c 0a a9 f1 3d bb c5 1b 3e ed 51 19 be
       0.015468979 0.1179982 0.15212147 -0.14972658
000170 bc e0 69 3d 6a 6a fc bd 74 5a 6a 3d 54 e6 b3 3d
       0.05709909 -0.12324984 0.05721517 0.08784166
000180 4b 35 1c be db b4 ec bd 7b 07 13 be 90 e5 7a bc
       -0.15254705 -0.11557933 -0.14358322 -0.015313521
000190 7f 97 71 3d bc 8e f0 bd 0d b3 2a bc fa 52 64 bd
       0.05898237 -0.117459744 -0.010418666 -0.055743195
0001a0 cb 73 14 3e a8 07 16 be 61 05 b6 bd 67 9d c4 ba
       0.14497297 -0.14651358 -0.08887745 -0.0015000523
0001b0 75 90 ff bd ad 6e fc 3d 4e a5 16 be 5f 9a 53 bd
       -0.12478725 0.12325797 -0.14711496 -0.05166089
0001c0 0c 23 89 bd 2b a7 e7 ba a0 6c 9c bd ae d1 ea 3d
       -0.06696138 -0.0017673721 -0.07637906 0.114657745
0001d0 8b 77 0d be 7a fa ac bd 56 b6 96 bd 39 b8 1c be
       -0.13815133 -0.08446212 -0.073589966 -0.1530465
0001e0 d9 a2 22 be 82 a8 68 3d 2b 20 1a 3e 4e 19 c6 bc
       -0.15882434 0.056801327 0.15051334 -0.024181988
0001f0 93 78 7e bd 7f bf 8e 3d 0b a0 c0 3d 5a 28 13 be
       -0.062126707 0.06970119 0.09405526 -0.14370862
000200 6b 93 9c bd f8 e6 0a 3e 24 5a 91 3d b5 ea 17 be
       -0.07645305 0.1356467 0.07097271 -0.14835627
000210 52 88 30 3b 03 f4 f8 bd 8d ac fd bd 23 7f a3 bd
       0.0026936722 -0.121559165 -0.12386427 -0.07983234
000220 71 70 22 3e 98 79 bc bd 60 06 e2 3d 3e ce 14 be
       0.15863205 -0.0920288 0.11036372 -0.145318
000230 9e 7b 34 bc c4 49 14 3e 55 45 13 bd ed 46 63 bd
       -0.011015801 0.14481264 -0.035954792 -0.055487562
000240 74 fb 90 bd 70 05 ed bd b8 36 51 3d 90 ac ef bd
       -0.07079211 -0.11573303 0.051077574 -0.117028356
000250 59 f7 cf bd c1 be 0e 3e 6b a4 f4 3d 85 79 ab bd
       -0.101546 0.13939954 0.11945423 -0.083727874
000260 62 e0 49 3b dc 74 31 bd 1f 46 fa 3d 6d 36 13 be
       0.0030803909 -0.043324336 0.12220406 -0.1437623
000270 6d 03 13 be b9 22 a1 3d df 0f fa 3b 27 a2 3e bd
       -0.14356776 0.07867951 0.0076312865 -0.04654136
000280 38 95 a8 3d 3a 12 86 3d 24 b6 df bd bf f9 bb 3d
       0.08231586 0.06546445 -0.109234124 0.09178495
000290 57 d3 bd 3d 1b f3 bb bc 0b dd 0d be 12 b3 89 3d
       0.092688255 -0.02294307 -0.13853852 0.06723608
0002a0 50 5d c3 3d 8d e1 22 be 1c 05 18 be 2f ef 9b bc
       0.09539282 -0.15906353 -0.14845699 -0.01903495
0002b0 db 7b 0f be b7 30 a3 bd f3 53 ff 3d db 5d f2 3c
       -0.14012091 -0.07968276 0.12467184 0.02958577
0002c0 d0 88 c4 3d 2f 77 1a 3d 8c 05 20 3e 3d 55 88 3d
       0.095964074 0.03771132 0.15627116 0.06656883
0002d0 03 e8 3f 3d 1f 43 f8 3d be 3f 82 bd c0 d7 0c 3e
       0.046852123 0.12122177 -0.06359814 0.13754177
0002e0 89 da 7e 3c 2e 68 16 3e 8c 83 c3 bd 5a 27 de bd
       0.0155550325 0.14688179 -0.09546575 -0.108473495
0002f0 b1 01 ee 3d 68 76 bd bd 3c f0 ff 3c e9 a4 1b 3e
       0.11621416 -0.092511 0.031242482 0.15199627
000300 1b d4 f2 3c 64 ef e8 bd b4 49 c8 bd 5e f8 b4 bd
       0.029642155 -0.11373785 -0.09779683 -0.08836435
000310 b7 6a de bd e4 82 b0 3d ab a4 c0 3c d5 68 6c bc
       -0.10860198 0.086187154 0.02351602 -0.014429291
000320 e8 6d 35 3d 48 1a bf 3d 60 51 6c 3c 9a 48 d4 3d
       0.044294268 0.093311846 0.014423698 0.1036541
000330 96 3e b0 bc 23 94 7e 3d b3 71 0d 3d 2b 3c b5 3a
       -0.021514218 0.062152993 0.03453226 0.0013827136
000340 a5 35 ef 3d 17 fc 1d 3e 00 a9 03 3e 94 70 26 bd
       0.11680154 0.15428196 0.12857437 -0.040634707
000350 46 28 56 bd 3a 48 07 3e c2 60 94 bd 73 27 8f 3c
       -0.0522845 0.13211146 -0.072450176 0.017474866
000360 21 1f ba bd fb cf 2b bd 5a ba 73 bd 54 1c cc 3d
       -0.090879686 -0.041946393 -0.05950389 0.09966341
000370 3e e1 8e bd 3e 0a 8f bd db 9f 8b 3d a4 f2 15 bc
       -0.06976555 -0.069843754 0.068175994 -0.009152088
000380 6c f4 80 3c 07 da f5 bd 08 b2 8f bd 27 2b a4 3d
       0.01574155 -0.12004476 -0.07016379 0.08016043
000390 b0 09 96 3d ec 53 16 be 6b 53 e4 bd 4c cf 3f 3d
       0.073260665 -0.14680451 -0.11148723 0.046828553
0003a0 84 74 00 be 50 87 ad bd 22 7f b9 bd 44 4a fa bd
       -0.12544447 -0.084730744 -0.09057452 -0.12221196
0003b0 e1 2f a0 bd b4 b4 e6 3d 9c d7 16 be fd 4c d9 3d
       -0.07821632 0.11264935 -0.14730686 0.106103875
0003c0 24 1e 0e be 31 ac 2f bd 7a 6d 5c bd f0 6c cf 3d
       -0.13878685 -0.042888824 -0.053815342 0.101282
0003d0 32 d6 04 be 49 85 a2 bd bb 79 21 be 79 9e 3f bd
       -0.12972334 -0.079355784 -0.15769093 -0.04678199
0003e0 a1 19 83 3d 2b d5 1a 3e ed be 0d 3e 0f 74 2e bd
       0.06401373 0.1512038 0.13842364 -0.04259115
0003f0 26 a6 ae bd ec 4c 10 3d b9 28 da 3d af 32 13 3e
       -0.08527784 0.03522961 0.106522985 0.14374803

net.net.2.weight f4 [256, 256]
000000 ec 30 2f 3d 80 26 93 ba ec 7d 53 bd 2e ea 1a bd
       0.042771265 -0.0011226684 -0.05163376 -0.037820987
000010 ec 0b 1c 3d e5 de 58 bd 7c 45 3a bd 48 bc 21 bd
       0.038097307 -0.052946944 -0.04547642 -0.0394862
000020 2c 85 89 bc a4 b6 ee 3c 83 a9 32 3d 65 8a 46 3d
       -0.016787134 0.029139824 0.04361869 0.048471827
000030 24 ac ed 3c 83 68 6d 3c c0 49 84 bc 35 a0 1b bd
       0.029012747 0.01449025 -0.016148448 -0.037994582
000040 ec 24 01 bd 40 21 f7 ba ea a2 5d 3d 00 c7 b3 bc
       -0.031529352 -0.0018854514 0.054110445 -0.021945477
000050 68 7d 19 bc d5 95 b6 ba 6a f4 e3 bc fa 01 f1 bc
       -0.009368278 -0.0013930151 -0.027826507 -0.029419888
000060 78 72 91 3c 96 c0 36 bd 80 9b 77 bb ef 28 72 bc
       0.017754778 -0.044617258 -0.0037781894 -0.014780267
000070 40 15 63 3c 7f e3 fb bb 4d ea 04 bd f6 1d 98 bc
       0.013860047 -0.0076870318 -0.03245001 -0.018568974
000080 c0 e6 78 bc 7b 64 dc 3c 7c a6 6d 3c 9a 6a 9c bc
       -0.015191734 0.026903382 0.014505025 -0.0190938
000090 1f de 49 3d 70 d0 b5 3b 76 fd 0c 3d 0e 3c c0 bc
       0.049284097 0.0055485293 0.034421407 -0.023466136
0000a0 e0 12 59 bd 02 e3 76 bd 58 b2 aa bc 3c d0 1d 3d
       -0.052996516 -0.060275085 -0.020836994 0.038528666
0000b0 bf 34 22 3d d8 07 9c 3c a9 43 93 3c 3c c2 2a bd
       0.039601084 0.019046709 0.017976599 -0.041689143
0000c0 b8 02 97 bc 90 6c f8 3b 5c 68 5f bd d8 e2 68 bd
       -0.018433914 0.007581301 -0.054542884 -0.05685696
0000d0 fc fb 40 bd 30 c3 9e 3c 88 e7 01 bc 58 c9 34 bc
       -0.04711531 0.019380182 -0.0079287365 -0.011034332
0000e0 e5 7f 20 3d 24 00 2a bd d6 54 1e bd 63 51 65 bc
       0.03918447 -0.04150404 -0.038655125 -0.013996455
0000f0 75 f4 1e 3d 66 54 29 3c 56 c7 5c bd ec 28 35 3d
       0.03880735 0.010335064 -0.05390104 0.04422848
000100 c6 71 13 bd d6 c0 47 3d c3 d9 bd 3c 44 3e 86 3c
       -0.035997175 0.048767887 0.023175126 0.016387112
000110 91 40 55 3d 44 4c bc 3c d6 7a 7c bd cc 7c cb 3c
       0.05206353 0.022985585 -0.061640583 0.024839781
000120 04 52 78 3d 18 87 d4 bc de 77 3b 3d fe 71 50 3d
       0.06062509 -0.025943324 0.04576861 0.05088996
000130 80 4e 71 bc e2 38 cb 39 f5 88 ff bb cb a8 63 3d
       -0.0147281885 0.00038761558 -0.007798309 0.055580895
000140 64 7b d6 3c 2f 92 36 3d 40 11 65 bd ae 39 cd bc
       0.026181884 0.044573005 -0.055924654 -0.025051918
000150 0d 29 40 bd 78 15 60 3c 0b 69 c5 bc 98 68 94 3c
       -0.04691415 0.013676994 -0.02409794 0.01811628
000160 58 4e 05 3d bc 46 87 bc f2 b4 fa 3b c6 b2 3c bd
       0.032545418 -0.016513221 0.007650965 -0.04606893
000170 c0 2b ec bb b0 9c 25 3c 2c e4 37 3d 90 e2 ce 3c
       -0.007207364 0.010108158 0.044895336 0.025254518
000180 c4 22 88 3c a0 e3 04 3d 9e 40 48 3d 76 2e ca 3b
       0.01661814 0.032443643 0.04888975 0.0061700894
000190 b2 d1 77 3d 80 0f 1c bd 3c 68 ad 3c 00 84 53 39
       0.060502715 -0.03810072 0.021167867 0.00020171702
0001a0 4c b9 3e 3d a2 0e 73 bd b4 7e f8 3c 8c 2e 5c bd
       0.04656343 -0.059340127 0.030333854 -0.053755328
0001b0 78 13 99 bc 08 22 a5 bc cc 5e ab bc 38 b9 f8 bc
       -0.018686041 -0.020157829 -0.020919226 -0.030361757
0001c0 0a b7 50 bd bd df 5e bd aa f7 4b bc 54 4d 52 3d
       -0.05095581 -0.054412592 -0.012449184 0.051343277
0001d0 13 de 86 bc 18 f7 2c bd 50 b7 8f bc 8a 15 53 bd
       -0.016463315 -0.042227834 -0.017543465 -0.051534213
0001e0 80 30 5e bb b7 8d 53 3d 67 bd 78 bd 27 54 0b 3d
       -0.003390342 0.05164882 -0.060727503 0.0340158
0001f0 64 c9 3d 3d da d1 39 3d ef a0 16 bd f0 8a ef 3b
       0.04633464 0.045366146 -0.036774572 0.007310264
000200 98 4b 10 3d a4 26 5a bd e6 df 45 3d bd 78 8c bb
       0.03522834 -0.053259507 0.04830923 -0.004286854
000210 c8 53 61 bd c7 e1 80 bc 00 38 eb 3a 39 3d ce bc
       -0.05501154 -0.015732659 0.0017945766 -0.025175678
000220 d1 6c cd bc bb c3 c8 bb 5c 8c b2 3c c0 1b e8 3c
       -0.025076302 -0.0061268485 0.021795444 0.028333545
000230 36 46 7a bd 80 64 83 bb c0 49 7d 3c e3 cf 4f 3d
       -0.061102115 -0.0040097833 0.015459478 0.050735366
000240 04 46 00 3d f0 2f 2e 3d f1 53 9a 3c 27 37 be bb
       0.031316772 0.042526186 0.018838855 -0.0058049145
000250 2a 48 0c bd 23 3d d2 bc 95 02 a8 3c f0 56 56 bc
       -0.03424851 -0.025663918 0.020509044 -0.013082251
000260 9a e9 6c 3d ff 4a 1f bd c2 4c 2f 3d 54 f1 23 3d
       0.057839967 -0.03888988 0.04279781 0.04002507
000270 b9 4e 2a 3d b8 d7 49 3d 26 fc 13 bd 89 2e 15 3d
       0.041578982 0.04927799 -0.03612914 0.036421333
000280 66 3d 7c bd 83 27 08 bd c0 9e 1d bc 14 cf 58 3d
       -0.06158199 -0.033240806 -0.0096203685 0.05293186
000290 9f 60 49 bc ba 04 4c bd b4 72 64 bd 80 52 99 3a
       -0.012291103 -0.049809195 -0.055773452 0.001169756
0002a0 a0 e2 98 3b 18 19 79 3c 56 ed 8c bc 06 3e ad 3c
       0.0046656877 0.015203737 -0.017203014 0.02114774
0002b0 03 83 df 3b a7 02 84 bc 1c 57 04 3d b6 81 37 bd
       0.0068210377 -0.016114546 0.032309636 -0.044801436
0002c0 56 50 03 bd 50 29 7d 3c d6 cf 8f bc 77 9e 9f ba
       -0.032059036 0.015451744 -0.017555159 -0.0012177964
0002d0 83 f8 b4 bc 30 f7 11 3d fe 1a 71 3d 23 79 5c 3d
       -0.022091156 0.035636127 0.058863632 0.053826462
0002e0 e2 48 87 3c d8 07 21 bd 28 ff b2 bc 45 99 e6 bc
       0.016514245 -0.03931412 -0.021850184 -0.028149256
0002f0 12 a8 40 bc f0 30 ff bc 53 cc 19 3d 09 a2 71 bd
       -0.011758821 -0.031151265 0.037548374 -0.05899242
000300 90 71 46 3b 34 f9 38 3d 2a d1 49 bd c8 67 33 bc
       0.003028009 0.045159534 -0.04927174 -0.010950036
000310 04 59 0c 3d 0b 6b b0 bc 37 fa ef bc c2 58 08 3d
       0.03426458 -0.021535417 -0.029294116 0.03328777
000320 1a 04 30 bd 1b 57 80 3d ca dc 66 3d 86 06 4b 3b
       -0.04297266 0.06266614 0.056362905 0.003097923
000330 10 3a 25 3c d5 29 01 bd c1 81 73 3c 1a 69 41 bd
       0.010084644 -0.031534035 0.014862479 -0.047219373
000340 b7 f7 82 bc 29 e4 4d 3d 85 dc 97 3c 5c 7e 39 3d
       -0.01598726 0.05026642 0.01853777 0.04528652
000350 ec 25 2a 3d 72 c1 75 3d 8a 09 84 3c 84 65 3a bd
       0.04154007 0.059998937 0.01611783 -0.04550697
000360 e4 b7 67 bd ae 03 20 3d 05 2a 51 3d 2d 48 7d 3d
       -0.056571856 0.03906601 0.051065464 0.06183641
000370 9d b5 2c bd 74 1c 6b 3d 89 fc b3 bc af 13 88 3c
       -0.042165387 0.057400182 -0.021971004 0.016610948
000380 1b 9b 32 3d 1f 52 44 bd 94 7b 74 bd 62 77 2b 3d
       0.04360495 -0.04792988 -0.059688166 0.0418619
000390 4e cc 6c bd f8 1b f8 3c 9e 58 15 3d 38 82 3c 3d
       -0.057812028 0.030286774 0.036461465 0.046022624
0003a0 3e ed ec 3a f8 cb 82 bc e0 89 05 3c 00 cb 0d bc
       0.0018076075 -0.0159664 0.008150548 -0.008654356
0003b0 3a 43 71 bd d2 7e 76 3c 9a 3f 16 bd 5e 7c 3d 3d
       -0.058902003 0.015044885 -0.03668175 0.046261184
0003c0 1c 62 f0 bc d5 c3 42 bc 5f b5 45 bd 15 09 6d 3d
       -0.029343657 -0.01188751 -0.048268672 0.05786999
0003d0 6c 85 14 3d a2 60 61 3d 54 65 15 3d e3 92 1c bd
       0.036260054 0.055023797 0.036473587 -0.03822602
0003e0 86 3e 73 3d 3c c8 04 bc 5a 8a 6b 3d 38 68 0f 3c
       0.0593858 -0.00810438 0.05750499 0.008752875
0003f0 aa 1b 22 3d b9 c1 c8 bc a9 96 cb 3c 60 86 9f b8
       0.039577164 -0.024506437 0.024852114 -7.60674e-05

net.net.2.bias f4 [256]
000000 24 c7 2f 3d 91 ca 88 3c 9e 94 13 bc 89 e4 d8 bc
       0.042914525 0.016698154 -0.009007601 -0.026476162
000010 01 ec eb bc 22 a0 00 bc 4f 08 0e bd d3 6b 24 3d
       -0.028799059 -0.007850679 -0.034675892 0.04014189
000020 85 d5 f8 3b d3 45 30 3d 60 29 14 3b cb bc 4a bd
       0.007593813 0.04303534 0.002260767 -0.049496453
000030 c3 e9 14 3d bb 3f 6c 3d 50 4c f5 bb a1 04 91 3c
       0.036355745 0.057677966 -0.007485904 0.017702403
000040 54 7f d6 3c 6e d7 5c bc 7c 98 3a bd 5f c8 7d 3d
       0.026183762 -0.013479097 -0.045555577 0.061958667
000050 69 0f 3b 3d c3 2b 0e 3d 51 26 60 3d 8d bb d6 bc
       0.045668993 0.034709703 0.05472404 -0.026212478
000060 85 98 2b bd 33 aa 45 3d 70 42 c1 bc ac 1a 8d ba
       -0.0418935 0.048258018 -0.02359125 -0.0010765395
000070 4c 54 c3 3c 4f 1e 00 3d 60 49 9f bb 57 3f 18 bd
       0.023843907 0.031278905 -0.004861042 -0.03716978
000080 ef 23 00 bd 74 10 73 3d 39 4d 3c bd 1d 24 8a bc
       -0.03128427 0.059341863 -0.045972083 -0.016862923
000090 fe 3f 00 3c 00 9a 45 3c a8 0f 94 3c fd 6d 11 3d
       0.007827757 0.012060642 0.018073872 0.035505284
0000a0 0c e5 7d bc 73 c9 8e 3c 08 cb 75 bc 35 00 0d 3d
       -0.015496504 0.017430043 -0.01500202 0.034424026
0000b0 b0 4f e9 b9 1a 31 50 bd e5 66 ad 3c 2b 87 9e bb
       -0.00044500595 -0.050828077 0.021167228 -0.0048378906
0000c0 02 0f 26 bd e3 15 55 bd 13 d1 a3 3a 11 ae 7f 3d
       -0.040541656 -0.052022826 0.0012498222 0.062421862
0000d0 53 99 3a bc ec 3d c7 bc 83 d6 5f bc 26 4c 6e 3c
       -0.011389094 -0.024321519 -0.013661983 0.014544522
0000e0 a3 f7 13 bd 31 fe 1b 3d b0 1e 8e 3c b2 7b 48 bc
       -0.036124837 0.038084213 0.017348617 -0.0122365225
0000f0 cd b7 76 3d 29 72 34 3d 38 e8 53 bd f3 00 81 3c
       0.06023388 0.044054184 -0.051735133 0.015747523
000100 87 30 bc 3c 49 d2 45 3d de b8 1a bd 2f 6d 3d 3d
       0.022972358 0.048296247 -0.03777396 0.046246704
000110 85 3f 28 bd ca 15 6f bc 4d 85 26 bd fb f6 8a bc
       -0.041076202 -0.014592597 -0.04065447 -0.016963473
000120 d8 52 df bc 39 f7 ca bc cc ba 30 bd 11 89 58 3d
       -0.027261183 -0.024776088 -0.043146893 0.05286509
000130 85 dd 4a 3d a0 6c 22 bd e4 9f 0d 3d 35 3f d0 3b
       0.049527664 -0.039654374 0.03457631 0.006355191
000140 53 90 cb ba e0 8a 39 3d ab d1 3a 3c 69 0d 00 3d
       -0.0015530683 0.045298457 0.011402528 0.03126279
000150 fc 3a 72 bd e0 7a 6e bb aa 14 6d 3b 05 fc 6d bd
       -0.059138283 -0.0036389157 0.0036175647 -0.058101673
000160 ed 18 64 bd 19 1e 5d 3d 2d ca c4 3c 60 a0 a5 bb
       -0.055687834 0.05398378 0.024022186 -0.0050545186
000170 99 72 9f bc ce 3f 0c bd 20 1d 4c 3d ea c1 0b bd
       -0.019463824 -0.034240536 0.049832463 -0.034120478
000180 78 fd 4c 3d f3 89 4c bc 6e fc 57 3c b6 fb 42 bb
       0.050046414 -0.0124840615 0.0131827425 -0.0029752082
000190 0e a8 10 bd 27 25 3a 3d d3 3a 17 3d c6 2e 6b bd
       -0.03531652 0.045445587 0.036921334 -0.057417654
0001a0 64 06 fd bc a4 e6 fd bc 75 37 7e bd 70 58 2d bd
       -0.030886836 -0.030993767 -0.062064607 -0.04232067
0001b0 21 07 b8 bc 3e b9 6c bd 79 4f f3 3c 2f b7 ec 3c
       -0.022464337 -0.05779385 0.029700981 0.028895942
0001c0 6b 8d 5b 3d 38 a1 12 bd 16 86 43 bc 3c 55 54 bd
       0.053601664 -0.03579828 -0.011933824 -0.0518391
0001d0 90 a3 00 bd a1 95 4c 3d ab 22 81 3c 62 47 54 3d
       -0.031405985 0.049947385 0.015763601 0.05182589
0001e0 98 14 77 bc 30 6d 39 bc fc 77 b3 bc 7a 5d 7b bd
       -0.0150805935 -0.011317536 -0.021907799 -0.061368443
0001f0 74 cd 32 3d 98 36 19 bd 17 6c 12 3d 36 3f 28 3b
       0.043652967 -0.03740558 0.035747614 0.0025672442
000200 2e 76 66 bc 84 58 df bc 2a 1b 47 bd db b6 0b bd
       -0.014066262 -0.027263887 -0.04860989 -0.03410993
000210 37 d1 94 3c c0 7a 8a ba 7f 63 87 bc 3e ef 64 3d
       0.018166168 -0.0010565147 -0.016526936 0.05589222
000220 f6 7f 61 bb 00 eb da 39 fe c0 2f bd 73 5f d5 3c
       -0.0034408546 0.0004175529 -0.04290866 0.02604649
000230 80 f1 3b ba a9 d2 12 3d ba 0d 16 bd 55 e6 50 3d
       -0.000716947 0.035845432 -0.036634184 0.05100091
000240 cb 1a 00 3d 76 1a 26 3c 80 b3 3f bb 4a f1 03 bb
       0.03127555 0.010138145 -0.0029251277 -0.0020132833
000250 c8 28 30 3c 00 f8 83 bc c3 07 05 bd ec a3 41 bd
       0.0107519105 -0.016109467 -0.032478105 -0.04727547
000260 9a 3d 4a bd 70 b8 ed 3b d3 9d ea bc dc d1 36 bd
       -0.049375154 0.0072546527 -0.02863971 -0.04463373
000270 f8 6c b2 3c 9b 9e a8 3c 3b 29 c7 3b 23 61 33 bd
       0.021780476 0.020583441 0.006077913 -0.04379381
000280 83 a6 8e 3c 6a 2a 07 bd 48 e1 55 bd cb 77 a7 3b
       0.017413383 -0.032999434 -0.052216798 0.005110716
000290 36 d0 1f 3b a8 7f fc bc 88 b1 ef bc d0 16 2f bd
       0.0024385578 -0.03082259 -0.029259458 -0.042746365
0002a0 00 80 a4 37 c5 bb 43 3d b3 fe 3d bc 27 79 f4 3c
       1.9609928e-05 0.047786493 -0.01159637 0.029842926
0002b0 5b c2 e9 3b bc b9 96 3c 9c e4 73 bd b2 09 0b 3c
       0.0071337647 0.018399112 -0.05954419 0.008486198
0002c0 d8 04 42 bd e9 58 5a 3d b0 bb c4 3c 6b eb 9d bb
       -0.0473679 0.053307448 0.024015278 -0.004819324
0002d0 41 13 27 3d c8 be 5e bc 51 0f 4d 3d fb d0 3b 3d
       0.040789846 -0.0135952905 0.050063435 0.045853596
0002e0 40 ff 14 bd 35 83 e5 bc 58 e4 12 bc 29 a0 66 3d
       -0.036376238 -0.028016666 -0.008965574 0.056305084
0002f0 8b bd 07 bd a5 dc 96 bc 1a d0 16 3d 1c 3a 98 bc
       -0.033139747 -0.018415758 0.036819555 -0.018582396
000300 3f fe 5e 3d 67 6a 5a 3d b7 64 31 3d 9b 15 dd bb
       0.054441687 0.05332413 0.04330894 -0.0067469603
000310 b8 48 7c 3d 7e 28 0f bd fd 3e 8f 3c c0 66 ed bc
       0.061592788 -0.034950726 0.01748609 -0.02897966
000320 fc ad 61 bd 3c ff 8e bc 0d 7c 23 3d d6 dc 56 bd
       -0.055097565 -0.01745569 0.039913226 -0.0524567
000330 d5 3b c9 3b 80 fb 29 bb 26 74 40 bd c1 cf d4 3c
       0.0061411657 -0.002593726 -0.046985768 0.025977971
000340 62 04 61 bd 6d f4 47 3d fc 16 b9 3c 2b a4 ef 3b
       -0.05493582 0.048817087 0.022593968 0.0073132715
000350 81 f4 a7 bc 51 ba 93 bc de fc 49 3c a6 b1 62 3c
       -0.02050233 -0.018033179 0.012328355 0.0138363
000360 ea 60 37 3b 5b 0c e2 3b 65 e7 a5 bb 89 2a 8e 3c
       0.002798135 0.0068984455 -0.005062985 0.017354267
000370 5e 57 5c bc 72 13 3b bd e7 11 d8 bc 72 90 53 bd
       -0.013448564 -0.04567284 -0.026375724 -0.051651426
000380 ba 8e 64 bd 1e fb 76 3d 35 4c 60 3d 0c 85 50 bd
       -0.055800177 0.060298078 0.054760177 -0.050908133
000390 0f 3c 39 bd ab 4f 52 bd e6 6b 47 3d 74 97 6b 3d
       -0.045223292 -0.05134551 0.048686884 0.057517484
0003a0 f8 37 e7 bc 05 22 e0 3b 38 13 f5 bc 5f d2 38 3d
       -0.02822493 0.006839993 -0.02991639 0.0451225
0003b0 1c 82 cb bc 28 27 ca bc 3c a5 11 3d cc 40 35 bd
       -0.024842314 -0.024676874 0.03555797 -0.04425125
0003c0 25 6e 2f 3d c5 70 7e 3d 1f 96 1b bd 92 cc 65 bc
       0.04282965 0.062119264 -0.037984964 -0.014025824
0003d0 57 31 01 bd ba 20 42 bd bb 65 ff 3c b4 1e 0b bd
       -0.031541195 -0.04739449 0.031176439 -0.033964828
0003e0 65 29 cf bc e0 56 48 3b 2d af e7 3c f0 60 5a 3c
       -0.025288293 0.003056936 0.028281773 0.013328776
0003f0 fa 40 58 bd 24 09 12 bd 00 b0 7d 3b 12 8f 33 bc
       -0.05279634 -0.03565325 0.003870964 -0.010959404

net.net.4.weight f4 [8, 256]
000000 cf 6e 01 bd 58 c2 41 bc 46 73 a9 bb 4d be 43 3d
       -0.031599816 -0.01182612 -0.0051712124 0.047788907
000010 43 47 bb 3c ef 2b 29 3d 23 e5 10 bd 73 90 65 3d
       0.022861129 0.041301664 -0.03537477 0.05604596
000020 5f ef 1b bc d7 8e 59 bd 74 b8 06 bd 76 a4 d7 bc
       -0.00951752 -0.05311474 -0.032890752 -0.026323538
000030 26 31 5d 3c bb f2 04 bd 18 85 69 bc 56 4d d1 bc
       0.013500487 -0.03245805 -0.014252923 -0.025549572
000040 7c ad 1e 3d d2 0d 38 3d b0 7b 7b bc 68 f2 d7 3c
       0.038739666 0.044935055 -0.015349314 0.026360705
000050 2b 52 22 bd 84 39 3e bd f8 34 1d bd 7e db bb 3c
       -0.039629143 -0.04644157 -0.038380593 0.02293181
000060 ff 17 54 3d 56 ee af 3c e0 83 98 bc 7f f5 80 3c
       0.051780697 0.021475952 -0.01861757 0.015742062
000070 40 2f e2 bb 9f e0 53 bb f8 80 6c 3c e0 83 95 3c
       -0.0069026053 -0.003232993 0.014435045 0.01825136
000080 95 dd 23 3c 8c ff 67 bd 48 62 5f bd 32 94 0c bd
       0.01000156 -0.056640193 -0.054537088 -0.034321018
000090 3c ed 3f bd ec af a7 bc aa 50 c3 3b 6f 81 ca bc
       -0.046857104 -0.020469628 0.0059605436 -0.024719922
0000a0 54 87 18 3d 66 62 5e bd a0 cd d6 bc de 8d 63 3b
       0.037238434 -0.05429306 -0.026221097 0.003472201
0000b0 1a fa 19 bc 50 96 ab 3b 30 33 a7 3c a6 47 49 bd
       -0.009398008 0.0052364245 0.02041015 -0.049140595
0000c0 e0 d3 4e bd 70 1f 5e 3b 46 ba 87 bc 72 4f 40 bd
       -0.05049503 0.003389325 -0.016568314 -0.046950765
0000d0 7c 6d 7a 3d f6 bc 77 bd 06 f4 15 3d 8b 10 69 bd
       0.06113957 -0.06048294 0.036609672 -0.056900542
0000e0 3e 50 33 3d 22 9e 76 3d 00 f9 12 3c 2d 40 52 bd
       0.043777697 0.0602094 0.008970499 -0.051330734
0000f0 c5 07 7b 3d 83 e6 6d 3c 5c 31 25 bd 3c d4 65 bd
       0.061286706 0.01452029 -0.040330276 -0.056110606
000100 1b eb eb bc cf 4e 21 3d aa 7c 12 3d 98 7e 3a 3d
       -0.02879863 0.0393818 0.03576342 0.045530885
000110 9d 65 fe 3c 4a eb 0c 3d df f1 51 bc c1 b0 fa bc
       0.031054312 0.034404077 -0.012814014 -0.030601861
000120 6a 41 0f 3d fb 1f 6b 3d 2e b5 7c bd 4a ce 0f 3d
       0.034974493 0.057403546 -0.061696224 0.035108842
000130 db c4 3d bd 28 75 64 bd a2 89 74 bd 4b 20 2a 3d
       -0.046330314 -0.05577579 -0.05970157 0.041534703
000140 a2 b4 df 3c 10 88 ea bb 66 45 87 3c ad 92 af bc
       0.027307812 -0.007157333 0.016512584 -0.021432245
000150 00 4a 3d 3c 2a b3 08 bd 24 e8 f3 bc ed 3b 32 3d
       0.0115532875 -0.03337399 -0.02977378 0.04351418
000160 c1 b1 6f bd 76 a0 41 3d 93 0a 7b 3c 24 fa d4 3c
       -0.05851913 0.047272168 0.015322345 0.025998183
000170 01 69 26 bd 9c 72 40 bd c0 64 44 bc 06 dc 18 bd
       -0.040627483 -0.0469843 -0.011986911 -0.037319206
000180 b7 59 7b 3c 9c 29 10 ba 9e 30 e6 bc 92 88 5d bd
       0.015341214 -0.00054993643 -0.028099354 -0.05408532
000190 c0 44 9b bc eb 1f 92 bc b1 cc f5 3c fc b2 8f bc
       -0.018953681 -0.017837485 0.030004831 -0.017541401
0001a0 70 06 a6 bc 6c be 62 3d 13 91 0c bd 7c 91 77 3d
       -0.020266742 0.05535738 -0.03431804 0.06044148
0001b0 9f a1 79 bc d8 34 3d bd ee 0b 38 3c a9 03 1e bc
       -0.015236287 -0.046192974 0.011233313 -0.009644427
0001c0 03 11 64 bd d8 3d 30 bd 2f 10 35 bd 18 06 79 bc
       -0.055680286 -0.04302773 -0.044204887 -0.015199207
0001d0 42 5e 0f 3d b4 0a de 3b 63 fe d5 3c 80 98 c9 3a
       0.035002 0.0067761783 0.026122278 0.0015380532
0001e0 60 60 84 3b c2 f5 2d 3d 19 74 2e bd cc 4b 0f 3d
       0.004039809 0.0424707 -0.042591188 0.034984395
0001f0 90 d8 53 bc f0 c8 08 bd fa 11 7c bb 57 2b 74 bb
       -0.0129300505 -0.033394754 -0.0038462863 -0.0037257278
000200 89 00 f3 3c ea f5 78 3d ca 26 21 3d 3a 5c 33 3d
       0.029663341 0.060781397 0.039343633 0.043789126
000210 c7 fb 66 bc 90 b1 e0 bb ff 28 32 3b a0 b8 49 3b
       -0.014098114 -0.0068571046 0.002718508 0.003078021
000220 b9 fa 2b 3c 9c 83 d7 3c 66 df 78 3d 30 0f 1e 3d
       0.010496789 0.026307873 0.060759924 0.038588703
000230 fa 56 48 3d 86 c3 58 bd 80 3e 74 bb da f0 26 bd
       0.048911072 -0.05292084 -0.0037268698 -0.040757038
000240 4c f4 50 3d f4 bf fc 3c 7a f0 30 3d 2e 6f 8a 3b
       0.05101423 0.03085325 0.043198086 0.0042246794
000250 00 e4 73 bb ac 56 0a 3d 5d f2 b5 bb 1e 6e 36 bd
       -0.0037214756 0.033774063 -0.0055525736 -0.04453861
000260 7e 72 a1 3c 70 5b 6c 3c 9e 9e 31 bd 74 b1 91 3c
       0.019707914 0.014426097 -0.04336416 0.017784812
000270 18 4f bb bc 15 87 2a 3d b3 04 4e bd 5b de 46 bd
       -0.022864863 0.04163273 -0.05029745 -0.0485519
000280 19 db 6c 3d 6a ae 5e bd c8 a9 d3 bc 92 84 2b bd
       0.057826135 -0.054365553 -0.025837794 -0.041874476
000290 6d 8d 95 3c 20 54 db 3c 7a a1 77 bd f3 06 f0 bc
       0.018255914 0.026773512 -0.06045673 -0.029300189
0002a0 06 a5 09 3d 68 c3 c8 3b 89 8f a0 bc 4a 5a 3f bd
       0.033604644 0.00612681 -0.019599693 -0.046716966
0002b0 d8 99 b3 bb 46 c9 78 3d 9c fc ba bc 19 bc 91 bc
       -0.005480986 0.060738824 -0.022825532 -0.017789887
0002c0 7c e2 d9 bc 7d 2a a4 3c 80 58 3a 3c 62 22 76 bd
       -0.026597254 0.020039791 0.011373639 -0.060091384
0002d0 f0 1b 37 3d b8 d7 6b 3d bf b5 61 3d 28 a1 1f 3d
       0.044704378 0.057578772 0.055104967 0.03897205
0002e0 b8 60 c2 3c 26 14 fb 3c 5c c5 4f bd 78 d8 38 bd
       0.02372776 0.030649256 -0.050725326 -0.045128316
0002f0 ba 17 0a 3d e9 0e 14 bd b0 28 cc bb a0 2f 5c bb
       0.033714034 -0.036147032 -0.0062304363 -0.0033597723
000300 ef 8a 02 3d 66 6c b4 3c eb 75 87 3c 3f 0f 69 3d
       0.03187078 0.022024345 0.01653572 0.056899305
000310 48 6e 05 3d 56 6d 48 bd cb ac 58 3d 80 24 00 bb
       0.032575876 -0.048932396 0.052899163 -0.0019553006
000320 16 5d 22 3d c2 df 1c bd 43 55 1d bc 3c eb de 3c
       0.039639555 -0.03829933 -0.0096028475 0.027211778
000330 03 c1 30 3d c0 b2 fc ba 40 67 cb bb ea bb 05 bd
       0.04315282 -0.0019279346 -0.0062073767 -0.032649912
000340 cc 65 0c 3d 02 f4 f7 bc e0 f8 4f bc 16 79 0a 3c
       0.03427677 -0.03026772 -0.012693614 0.008451721
000350 2d 4d 8d 3c 38 bf 43 bd 80 8c 09 3d 38 ac 30 bd
       0.017248714 -0.047789782 0.033581257 -0.04313299
000360 01 6d 62 bc c6 83 58 3d 46 16 5c 3d f2 c6 9e bc
       -0.013819934 0.052860044 0.05373218 -0.019381974
000370 61 fd e1 bc ec d3 bf 3c 81 26 d3 bb 52 58 59 3d
       -0.02758664 0.023416482 -0.006443799 0.053062744
000380 3a d0 14 3d c0 20 da bb 73 0f 51 bd 20 73 22 3c
       0.036331393 -0.006656736 -0.051040124 0.009915143
000390 99 f4 de bb 42 19 34 3d 9c af bb 3c 09 cc 51 bd
       -0.0068040607 0.0439694 0.022910886 -0.051219974
0003a0 98 66 7e bd c1 04 20 3d 68 5e f1 bc 86 9f 87 bc
       -0.06210956 0.039067034 -0.029463962 -0.016555559
0003b0 40 99 ee bc f6 23 36 bd b8 3d 80 3c 56 76 6c bd
       -0.02912581 -0.04446789 0.01565443 -0.05773004
0003c0 ee 64 33 3b 47 d8 e2 bc b5 a0 e2 bc 2a ac a0 3c
       0.0027373391 -0.02769102 -0.027664522 0.019613344
0003d0 82 a7 58 bd f8 24 db 3c bc 4b 34 bc 34 a7 f4 3c
       -0.052894123 0.026751027 -0.011004385 0.029864885
0003e0 9a 40 ae bc 70 e7 54 3d 41 49 73 3d 68 9c 8c 3c
       -0.021271039 0.05197853 0.059396032 0.017164424
0003f0 1e b9 60 3d 00 58 6e 3d b4 e2 1d 3d 03 42 48 3c
       0.05486404 0.058189392 0.03854628 0.01222277

net.net.4.bias f4 [8]
000000 02 f9 12 3d f1 65 35 bd 3f 06 1e bd 3c 68 37 3d
       0.035882004 -0.044286672 -0.038580175 0.04477714
000010 2b fa 8c bb 3b 1f 67 3c 1d ee 4e 3d 61 e2 30 3d
       -0.0043022833 0.014106567 0.05052005 0.04318464
